models/char_classifier.pth (torch, 51309 bytes, 4 tensors)

fc1.weight f4 [128, 63]
-0.109943114 0.102956936 0.050800994 0.09813474 0.04116027 -0.089746684 -0.05981712 0.12507322
0.0005534142 -0.11558652 0.100686535 0.11500983 -0.051340282 0.0047160834 -0.099386126 0.10258372
0.04609415 -0.08662212 -0.09974669 0.060632065 -0.08622291 -0.017857797 -0.0021203607 -0.06777732
-0.07633875 -0.037129752 -0.08062507 0.029685825 -0.1028862 -0.09543064 -0.056360655 0.06737292
0.09528786 0.073333696 -0.10105941 0.039187253 0.12098445 0.010386929 -0.05858411 0.05334504
0.01502113 0.031874076 -0.03414291 -0.005407244 -0.007143028 -0.071658306 0.059206128 -0.051412538
-0.045813456 0.050781727 0.01271224 -0.083841294 -0.07997264 -0.12369873 -0.07338266 -0.11466326
0.115805954 -0.060421556 0.08533706 -0.035008848 -0.078945905 0.041890457 0.007449448 -0.044414572
0.029072598 0.035744503 -0.0032162666 -0.060380377 0.07729408 -0.03533563 -0.093447596 0.009906232
0.08200081 0.10480201 0.08489135 0.018663883 -0.011086442 -0.1108713 0.0916335 -0.025130369
0.120633245 0.05947177 0.079365164 0.061605766 -0.03691998 -0.117478445 -0.00090001523 0.042196438
-0.061951444 -0.010126866 -0.033121474 0.10673481 0.009556085 -0.11958596 0.041117325 0.08871515
0.004934132 -0.00047126412 -0.060555957 -0.029072873 -0.014798872 0.115635484 -0.12123306 0.04338874
0.073147625 -0.084480815 -0.047754057 -0.0046528876 -0.030010387 -0.091791235 -0.0073990747 0.008441478
0.03865069 0.117055744 -0.028653316 -0.08051649 0.12117162 0.08532067 -0.08583072 0.10412404
-0.0071881637 0.10476807 0.020360738 -0.017796293 0.10202047 0.034324884 -0.120740004 -0.058621593
0.0030302852 0.069255024 -0.0017986074 -0.027533598 -0.06205661 -0.076489694 -0.020236 0.038501278
0.009949923 -0.004914582 -0.054540448 0.10962182 0.105931774 -0.023213364 -0.064476825 -0.12555169
-0.066942275 -0.036013283 0.011985898 -0.07281825 0.032601863 0.10833761 -0.050350353 0.00961113
-0.014144778 -0.04907637 0.032303795 -0.0838054 0.016534433 0.005146429 -0.05136607 -0.054313138
0.10663532 0.06864771 -0.07181172 0.070791095 0.049742267 0.09915903 -0.09584536 0.016344726
-0.09763244 -0.110005476 -0.05411095 0.030902654 -0.110977486 0.095981866 0.059328243 0.11467828
0.00047440827 0.082788914 -0.025175378 -0.067436956 -0.014151752 -0.021996468 -0.12130029 -0.06434138
0.12122047 -0.0777665 -0.075681314 0.018004194 0.06762503 0.048050612 0.116595805 -0.09039919
-0.054132245 0.019965097 -0.08239471 -0.08561264 -0.05689869 0.04932043 -0.10628864 0.08009045
-0.0053996444 -0.075984634 -0.10888943 0.003437534 -0.12410325 0.07841295 -0.031283185 0.09636322
0.008874282 -0.08318427 0.123312995 -0.09043023 0.019370422 -0.11780254 -0.109309845 0.104240716
0.08707948 -0.061330535 -0.063676946 0.060145274 -0.03182432 0.1127184 0.011270106 -0.07309033
0.0065401047 0.062789515 0.06921789 -0.11786889 -0.08750592 -0.11151467 0.008414134 -0.102451734
-0.045705512 0.07261233 0.04208429 0.0067179203 -0.019547306 -0.049469024 -0.027343921 0.0835136
-0.12497052 0.033264354 -0.07026693 -0.083445966 0.047280177 -0.11637548 0.060878664 0.03512393
-0.0685821 -0.04792972 0.11779903 0.013539389 -0.08948513 0.12545508 -0.019124568 0.10717638
00000000: db29 e1bd 16db d23d b414 503d defa c83d
00000010: ac97 283d 1ccd b7bd cc02 75bd 3213 003e
00000020: 0013 113a a0b8 ecbd be34 ce3d 468a eb3d
00000030: 304a 52bd 6089 9a3b f48a cbbd 6a17 d23d
00000040: 38cd 3c3d f066 b1bd fe47 ccbd 5459 783d
00000050: a395 b0bd 844a 92bc c0f5 0abb d6ce 8abd
00000060: 7e57 9cbd 5e15 18bd c21e a5bd b02f f33c
00000070: 00b6 d2bd 2471 c3bd 6eda 66bd d0fa 893d
00000080: 4826 c33d fa2f 963d 3cf8 cebd d082 203d
00000090: b2c6 f73d f02d 2a3c e4f5 6fbd 5480 5a3d
000000a0: 301b 763c 648e 023d 70d9 0bbd 402f b1bb
000000b0: 1010 eabb 97c1 92bd 2082 723d f495 52bd
000000c0: e4a6 3bbd 8000 503d 0047 503c fcb4 abbd
000000d0: b2c8 a3bd c255 fdbd a649 96bd 92d4 eabd
000000e0: ac2b ed3d 987c 77bd 32c5 ae3d 7065 0fbd
000000f0: 64ae a1bd 5495 2b3d 801a f43b 0eec 35bd
00000100: a829 ee3c d468 123d 00c8 52bb 6a51 77bd
00000110: 5c4c 9e3d 18bc 10bd 7461 bfbd c04d 223c
00000120: 0af0 a73d 70a2 d63d 84db ad3d 00e5 983c
00000130: e8a3 35bc 7e10 e3bd 58aa bb3d 34de cdbc
00000140: 900e f73d ac98 733d 348a a23d 5456 7c3d
00000150: 6839 17bd 8a98 f0bd 00ef 6bba 2cd6 2c3d
00000160: ccc0 7dbd 28eb 25bc 62aa 07bd c897 da3d
00000170: 2091 1c3c 7ce9 f4bd a46a 283d 4ab0 b53d
00000180: 80ae a13b 0014 f7b9 8609 78bd 3c2a eebc
00000190: f876 72bc 4cd2 ec3d 0a49 f8bd 64b8 313d
000001a0: 6cce 953d 4704 adbd c299 43bd 4077 98bb
000001b0: 58d8 f5bc 0bfd bbbd f073 f2bb 204e 0a3c
000001c0: 3050 1e3d ecba ef3d 5cba eabc d4e5 a4bd
000001d0: d428 f83d 9abc ae3d 04c8 afbd fc3e d53d
000001e0: b08a ebbb a490 d63d 90cb a63c 88c9 91bc
000001f0: 1cf0 d03d 4098 0c3d 8946 f7bd 321d 70bd
00000200: c097 463b 94d5 8d3d 40bf ebba 248e e1bc
00000210: 122f 7ebd a1a6 9cbd f8c5 a5bc 84b3 1d3d
00000220: 0005 233c 800a a1bb ce65 5fbd 6881 e03d
00000230: c2f2 d83d f429 bebc 6d0c 84bd 9f90 00be
00000240: 0819 89bd aa82 13bd 8060 443c bc21 95bd
00000250: 8889 053d 1ce0 dd3d 2c3c 4ebd 0078 1d3c
00000260: 80bf 67bc 4e04 49bd fc50 043d 2aa2 abbd
00000270: 3873 873c 60a3 a83b 3a65 52bd 7477 5ebd
00000280: 9e63 da3d 2c97 8c3d 0612 93bd ecfa 903d
00000290: 8cbe 4b3d e413 cb3d 924a c4bd 60e5 853c
000002a0: 84f3 c7bd 8d4a e1bd 72a3 5dbd 9027 fd3c
000002b0: 2a48 e3bd 2492 c43d 2c02 733d 72dc ea3d
000002c0: 00ba f839 3c8d a93d 983c cebc 631c 8abd
000002d0: c0dc 67bc f031 b4bc 496c f8bd 6ac5 83bd
000002e0: 7042 f83d 0b44 9fbd cefe 9abd 887d 933c
000002f0: fe7e 8a3d b8d0 443d c8c9 ee3d 3623 b9bd
00000300: c6b9 5dbd d88d a33c 8fbe a8bd ae55 afbd
00000310: 9a0e 69bd 3804 4a3d dcad d9bd 7606 a43d
00000320: 80ef b0bb d59d 9bbd 6c01 dfbd 4048 613b
00000330: d829 febd f896 a03d cc22 00bd 145a c53d
00000340: 7065 113c 845c aabd 868b fc3d 7c33 b9bd
00000350: b8ae 9e3c 7542 f1bd d7dd dfbd 287c d53d
00000360: ba56 b23d ba35 7bbd 0f69 82bd e45a 763d
00000370: 385a 02bd e8d8 e63d 40a6 383c 62b0 95bd
00000380: 604e d63b ca97 803d 1cc2 8d3d 3f65 f1bd
00000390: 4e36 b3bd ce61 e4bd 70db 093c 37d2 d1bd
000003a0: b435 3bbd c6b5 943d 9460 2c3d 0022 dc3b
000003b0: ac21 a0bc 08a0 4abd 5c00 e0bc 2e09 ab3d
000003c0: 8bf0 ffbd 3440 083d 1ce8 8fbd b8e5 aabd
000003d0: dca8 413d 4556 eebd e85b 793d 1cde 0f3d
000003e0: c674 8cbd f451 44bd 9e40 f13d 50d4 5d3c
000003f0: fb43 b7bd 4c77 003e 20ab 9cbc 4a7f db3d

fc1.bias f4 [128]
0.046096876 0.10503946 -0.02829557 -0.002751276 0.05699317 -0.11019159 0.104302436 -0.09499894
-0.022377469 -0.07183681 0.0070025325 -0.024064727 -0.05706477 0.0085454285 0.074257 0.09701206
0.0588627 -0.075791836 -0.0065032244 0.073709205 -0.053537406 -0.091494836 0.0720671 -0.01572521
0.11564697 -0.026293166 -0.10028513 0.09763819 -0.049842864 0.030621454 0.10049757 -0.06386013
0.027418166 0.04801719 -0.041471057 0.03960274 0.0674019 -0.04072853 -0.03123577 -0.12246944
0.010623917 0.064593196 -0.014756456 -0.006401032 -0.05118443 0.0077759326 0.088327706 0.12333651
0.018835232 0.041970015 0.09056714 0.107965425 -0.035632282 -0.06298031 -0.057691082 0.09832415
0.037544116 0.064945474 0.12506333 0.034996092 0.010194391 -0.1020999 -0.123957634 0.0925937
0.06566644 -0.06661089 0.043939114 -0.009502046 -0.07752496 0.081794396 0.10621774 -0.07550553
0.09992148 -0.066129 0.04250051 -0.04536751 -0.093060665 -0.01191128 -0.022259869 -0.034586713
-0.099804655 -0.12580462 0.03641665 -0.03799229 0.072885364 -0.031202473 0.03712119 0.06236908
0.107740745 -0.07737778 -0.095490225 -0.07187043 -0.060761645 -0.028550722 0.05407092 -0.06299888
0.076719165 0.096123636 -0.02602335 0.0319511 0.028118 -0.046349302 -0.05981782 0.0065764487
-0.037676863 -0.06918471 -0.100106135 -0.07269809 -0.107712924 -0.078837454 0.04686953 -0.124451704
-0.032837197 0.10353355 -0.07877228 -0.021420836 -0.048793547 -0.08668141 0.06232834 0.060233712
0.04747413 0.09936491 -0.08053526 -0.081235476 -0.019338302 0.024796724 0.07804857 0.092502534
00000000: 14d0 3c3d ee1e d73d 1ccc e7bc c04e 34bb
00000010: ac71 693d 21ac e1bd 849c d53d ce8e c2bd
00000020: f450 b7bc 2d1f 93bd 8075 e53b 6423 c5bc
00000030: c0bc 69bd 2002 0c3c 0e14 983d 42ae c63d
00000040: 041a 713d c038 9bbd 0019 d5bb daf4 963d
00000050: 0a4a 5bbd a561 bbbd ea97 933d 28d2 80bc
00000060: 52d8 ec3d c464 d7bc 4a62 cdbd 88f6 c73d
00000070: 0828 4cbd d8d9 fa3c acd1 cd3d 1ac9 82bd
00000080: 109c e03c acad 443d 8edd 29bd 7c36 223d
00000090: 020a 8a3d f6d2 26bd 28e2 ffbc 42d1 fabd
000000a0: f00f 2e3c 7049 843d 10c5 71bc c0bf d1bb
000000b0: c4a6 51bd 40cd fe3b 28e5 b43d da97 fc3d
000000c0: 584c 9a3c c0e8 2b3d 447b b93d fa1c dd3d
000000d0: 28f3 11bd d2fb 80bd 7c4d 6cbd 2c5e c93d
000000e0: dcc7 193d 2202 853d 9a10 003e 1058 0f3d
000000f0: 6006 273c c119 d1bd 80dd fdbd c4a1 bd3d
00000100: 207c 863d 4a6b 88bd 80f9 333d 78ae 1bbc
00000110: 68c5 9ebd d283 a73d b088 d93d a5a2 9abd
00000120: a2a3 cc3d a46e 87bd 0415 2e3d 48d3 39bd
00000130: 9796 bebd 8827 43bc 545a b6bc ccaa 0dbd
00000140: 6266 ccbd edd2 00be a029 153d ce9d 1bbd
00000150: ec44 953d 549c ffbc 640c 183d b876 7f3d
00000160: 2ea7 dc3d 3e78 9ebd 6190 c3bd ce30 93bd
00000170: 34e1 78bd 34e3 e9bc 7879 5d3d 8f05 81bd
00000180: f01e 9d3d 78dc c43d ec2e d5bc 28df 023d
00000190: b857 e63c c4d8 3dbd 8803 75bd 407f d73b
000001a0: 0e53 1abd b7b0 8dbd 7204 cdbd bce2 94bd
000001b0: 9898 dcbd 8875 a1bd 44fa 3f3d 89e0 febd
000001c0: 4c80 06bd 6609 d43d 5c53 a1bd c07a afbc
000001d0: bedb 47bd 0686 b1bd 004c 7f3d a0b7 763d
000001e0: 3c74 423d d47f cb3d acef a4bd c95e a6bd
000001f0: 5c6b 9ebc 8022 cb3c eed7 9f3d f871 bd3d

fc2.weight f4 [31, 128]
0.038733132 -0.0101328045 -0.08307194 0.06626537 0.03087952 0.007956654 0.074680455 -0.044724286
0.020962842 0.019857496 -0.081469215 0.08492569 -0.062162407 0.017076187 -0.0058716238 0.08424128
-0.030819029 0.06507569 0.08284966 -0.0054692775 -0.04001112 -0.06912386 0.013756193 0.06635695
0.039626546 -0.05603451 -0.001727052 -0.025010169 0.03036759 0.03669662 -0.007413864 0.040032618
0.051149435 -0.0664213 -0.06651584 0.026712947 -0.011490665 -0.019422174 0.042094536 -0.016599722
0.0024389625 -0.07447503 0.0010484159 0.053345732 0.070778824 -0.086023085 -0.051439784 0.047009863
0.046284996 -0.07738145 0.0674972 -0.018138483 -0.042503472 0.04093594 0.06263109 0.027054586
0.052274592 0.040448703 0.06075848 0.04884743 -0.0799043 -0.024307027 -0.07778303 -0.07055773
0.045406483 -0.0142561495 -0.035727493 0.05927127 0.02745881 -0.040974986 -0.031491186 -0.06286948
-0.01839444 -0.07073785 0.027708024 0.007574655 -0.05275759 -0.057775278 0.05906249 0.07331916
0.02983021 0.069715835 0.0055257976 0.057618625 0.057877056 0.06805522 -0.03821008 -0.070395656
0.022865169 0.025369428 0.0691899 -0.02198308 0.036911763 0.046845444 0.042362086 -0.046762593
0.062531315 0.053862132 -0.069577135 0.06470949 0.0872018 0.018105388 -0.032612566 -0.074076064
-0.06679291 0.055394746 -0.07400133 0.06483983 -0.0028353557 -0.019104198 0.014679991 -0.026649114
-0.02997581 -0.046617292 0.039309792 0.053277023 -0.086449325 0.038694672 0.053425796 0.024523325
0.05265837 -0.03815061 -0.06960043 -0.065182164 -0.021345459 -0.027278885 0.042816646 -0.0147204995
-0.06299799 0.032006137 -0.014452197 0.07595993 0.06892034 0.07977774 -0.05469781 -0.017631926
-0.015736967 -0.0339219 0.08057172 0.0651691 -0.07750584 0.030566327 -0.0743292 -0.070098184
0.057326682 0.083336376 -0.067424275 -0.08179673 -0.010066867 0.050449215 -0.040307675 -0.085084595
0.07819731 0.010529771 0.002189964 -0.047954958 -0.04102019 -0.05278218 0.019581512 0.06888989
0.013931841 -0.036108848 -0.011812888 -0.0019330159 0.028191216 0.066784866 0.04647989 0.046750925
0.034190938 0.0047514066 0.08454042 0.030496128 -0.006900117 -0.013583094 0.052688293 -0.01242324
-0.008953832 -0.08213808 -0.07011499 -0.021342903 0.046266668 0.041243248 0.020068496 -0.02231706
-0.038729865 -0.051952586 0.047094427 0.06501538 0.06888982 -0.007943153 0.05667547 -0.05717086
0.01741808 0.08672089 -0.06174173 0.025433928 0.034560755 -0.005135864 0.025805935 0.08740596
-0.026964732 0.08429889 -0.003078878 -0.03592594 -0.06283696 -0.048453387 -0.03466203 0.05057531
0.01796066 0.056699462 -0.044413358 0.05598422 -0.0056789815 0.06093044 0.025665462 0.0274164
-0.018044159 -0.015502535 0.07845298 -0.0033310428 -0.05732479 -0.08365095 0.005732298 -0.072499394
0.01605796 -0.03849851 -0.051338285 0.076026775 -0.077161215 0.047697745 0.043404363 0.07782196
-0.002312906 0.0061660707 -0.08571123 0.022106104 0.0206917 -0.07249761 -0.05030358 -0.056789253
-0.06620308 -0.045750614 0.0021399334 0.038051657 0.01166141 0.007172033 0.013654143 -0.034070563
-0.022404477 0.078770734 0.02402424 0.0753215 0.06262808 -0.038230963 0.043476008 -0.018967234
00000000: a2a6 1e3d 1004 26bc 9f21 aabd 23b6 873d
00000010: 0cf7 fc3c a05c 023c 11f2 983d d030 37bd
00000020: 44ba ab3c 30ac a23c 55d9 a6bd 85ed ad3d
00000030: 029e 7ebd 5ce3 8b3c c066 c0bb b186 ac3d
00000040: 3078 fcbc 6746 853d 15ad a93d a037 b3bb
00000050: b3e2 23bd cf90 8dbd a861 613c 27e6 873d
00000060: 724f 223d 7184 65bd 405e e2ba 20e2 ccbc
00000070: 74c5 f83c 324f 163d 00f0 f2bb 3ef9 233d
00000080: 1282 513d e407 88bd 7539 88bd 1cd5 da3c
00000090: 5843 3cbc 401b 9fbc 526b 2c3d 24fc 87bc
000000a0: 00d7 1f3b 5d86 98bd 006b 893a 0e81 5a3d
000000b0: 7df4 903d df2c b0bd 86b2 52bd 6a8d 403d
000000c0: 5695 3d3d 2a7a 9ebd f93b 8a3d 2897 94bc
000000d0: 1f18 2ebd 72ac 273d bb44 803d 94a1 dd3c
000000e0: e21d 563d 8aad 253d e2dd 783d 3e14 483d
000000f0: dea4 a3bd 881f c7bc b64c 9fbd 9280 90bd
00000100: 26fc 393d a092 69bc fe56 12bd 6ec6 723d
00000110: 4cf1 e03c 63d5 27bd e7fc 00bd b7c1 80bd
00000120: f0af 96bc 02df 90bd f0fb e23c d034 f83b
00000130: 5818 58bd c5a5 6cbd 82eb 713d 5b28 963d
00000140: 7c5e f43c 2dc7 8e3d c011 b53b 8201 6c3d
00000150: 7e10 6d3d 8960 8b3d 2c82 1cbd 992b 90bd
00000160: bc4f bb3c 8cd3 cf3c 6fb3 8d3d dc15 b4bc
00000170: ca30 173d 02e1 3f3d de83 2d3d 228a 3fbd
00000180: 6b10 803d 8a9e 5c3d 757e 8ebd 6986 843d
00000190: db96 b23d c051 943c c194 05bd 31b5 97bd
000001a0: b9ca 88bd 9ae5 623d 028e 97bd bfca 843d
000001b0: 60d1 39bb 6880 9cbc 5884 703c 3e4f dabc
000001c0: d48f f5bc c6f1 3ebd 4e03 213d 0239 5a3d
000001d0: 580c b1bd 4e7e 1e3d 02d5 5a3d 24e5 c83c
000001e0: 4eb0 573d d043 1cbd ac8a 8ebd 3a7e 85bd
000001f0: acdc aebc f877 dfbc 8260 2f3d 402e 71bc
00000200: 1705 81bd de18 033d e8c8 6cbc e190 9b3d
00000210: 1b26 8d3d 8362 a33d d00a 60bd d470 90bc
00000220: d0ea 80bc b1f1 0abd c902 a53d 6177 853d
00000230: 62bb 9ebd 3c66 fa3c e839 98bd a38f 8fbd
00000240: 62cf 6a3d 43ac aa3d bd15 8abd 0b85 a7bd
00000250: 80ef 24bc d6a3 4e3d a919 25bd d540 aebd
00000260: e925 a03d 1085 2c3c 8085 0f3b 6b6c 44bd
00000270: c904 28bd 2132 58bd 6869 a03c 2516 8d3d
00000280: 6042 643c dfe6 13bd d88a 41bc 405d fdba
00000290: 44f1 e63c 81c6 883d b261 3e3d e67d 3f3d
000002a0: cc0b 0c3d b0b1 9b3b 8723 ad3d 04d3 f93c
000002b0: 601a e2bb a08b 5ebc aecf 573d d88a 4bbc
000002c0: 18b3 12bc 0238 a8bd 7398 8fbd 50d7 aebc
000002d0: 1e82 3d3d aeee 283d b066 a43c 44d2 b6bc
000002e0: 35a3 1ebd 3ccc 54bd 16e6 403d c926 853d
000002f0: 1b16 8d3d 0024 02bc 8a24 683d fe2b 6abd
00000300: 5cb0 8e3c b99a b13d e5e4 7cbd d05a d03c
00000310: 948f 0d3d c04a a8bb f866 d33c e501 b33d
00000320: 24e5 dcbc e5a4 ac3d 00c7 49bb 1427 13bd
00000330: aab0 80bd 0f77 46bd c6f9 0dbd 0e28 4f3d
00000340: 3c22 933c b23d 683d c8ea 35bd b64f 653d
00000350: c016 babb 3292 793d 6040 d23c 5c98 e03c
00000360: 58d1 93bc 58fe 7dbc f5ab a03d a04d 5abb
00000370: 66cd 6abd 3051 abbd 00d6 bb3b 907a 94bd
00000380: fc8b 833c 9db0 1dbd 1848 52bd edb3 9b3d
00000390: b306 9ebd b65e 433d c6c8 313d 1f61 9f3d
000003a0: 2094 17bb c00c ca3b 5f89 afbd dc17 b53c
000003b0: a481 a93c a079 94bd 200b 4ebd d99b 68bd
000003c0: 7b95 87bd ff64 3bbd 203e 0c3b 0edc 1b3d
000003d0: 800f 3f3c 6003 eb3b a0b5 5f3c 938d 0bbd
000003e0: 9889 b7bc 8d52 a13d 7cce c43c 2942 9a3d
000003f0: 2743 803d 1298 1cbd e613 323d 2c61 9bbc

fc2.bias f4 [31]
-0.06002652 0.08746352 -0.002611652 -0.043644305 -0.023481876 0.036605403 0.012867309 0.0150879845
-0.0012105554 0.08014666 -0.08791021 -0.07233898 0.07822212 0.064766295 -0.07804357 0.08750395
0.0465047 -0.08593832 -0.07241361 -0.016442403 0.08430693 -0.07878766 0.06494299 0.04414005
-0.018611424 0.057049416 0.084044226 -0.022892632 -0.046474624 -0.07887619 0.045347832
00000000: 5ede 75bd 1320 b33d 4028 2bbb 5fc4 32bd
00000010: 105d c0bc 8cef 153d 68d1 523c 9833 773c
00000020: 80ab 9eba ef23 a43d 450a b4bd 7626 94bd
00000030: eb32 a03d 31a4 843d 4fd5 9fbd 4535 b33d
00000040: b67b 3e3d 6e00 b0bd 964d 94bd 38b2 86bc
00000050: 1da9 ac3d 6d5b a1bd d500 853d 32cc 343d
00000060: fc76 98bc a6ac 693d 611f ac3d 5489 bbbc
00000070: 2d5c 3ebd d789 a1bd a6be 393d
